udacity/Navigation/checkpoint.pth (torch_old, 54546 bytes, 6 tensors)

fc1.weight f4 [128, 37]
00000000: 217f 4f3d e15d 023c 8d91 103d df7f 463d
00000010: c7b0 f7bb d5b8 9cbd 41fa 103d f9be 263d
00000020: 9240 133e 79c1 8d3e a794 773d baa5 a53d
00000030: 86ab bd3d c0eb fa3d 39c9 513d 4cff a6bd
00000040: a547 05bd c507 90bc 63df 723d caa8 b63d
00000050: 9b06 033d 53d0 e93c 087a cb3c 8c19 adbb
00000060: 71d4 06bc 1c96 743e 5e4e 22bf d68c 1dbf
00000070: c9d6 5ebf 83e3 09c0 2851 59bd f149 28bd
00000080: eff8 b93d 51a5 193e e70f 673e 62f8 9db9
00000090: c308 7abb 5017 c3bd 5954 dc3c b90f d13d
000000a0: 9be4 74bd 6929 6b3e 1a19 b93d ebc3 bf3d
000000b0: d50d 193c a8b0 17be 88dd 8bbd 8c57 74be
000000c0: 2fa7 a6be c4dc 3f3e 2a36 a93e da0b 7bbe
000000d0: ca0f bb3c 6733 5bbd e4da 9d3d efa9 90be
000000e0: fd1b 75be 4f34 0ebe 89a0 ba3d 86e5 633d
000000f0: 6798 333e 1ced d3bc 2b20 92bc 74e7 acbd
00000100: a946 083e b28b 903e bf50 29be 6f7b 493d
00000110: 267c 033e 3ef4 92be cb8f 8ebd 7380 74be
00000120: 61c7 c8bc 78a1 8cbd 7171 d73c a8be 6dbe
00000130: 7241 873d 7d90 aabe 89b3 13be e002 78be
00000140: ef89 893e 4484 193d dd37 21bf a0dd 2ebf
00000150: 9a19 b4bc a57f dabe c5c0 1b3e a88c 15bf
00000160: 66f0 22bf 97c3 0fbe 44d6 64be daf7 493c
00000170: 0a85 7bbc e92b e8be a1be 6ebe e298 e9be
00000180: 99a4 ee3b 6ba0 c6be 4fd5 3ebf 1fbc dfbe
00000190: 2631 9ebe 2179 223e 9086 5d3d 578e c0be
000001a0: 55f5 82be 2023 e8be 7622 5a3e bf94 e0be
000001b0: 016d a4bf 3e61 11be f4d8 c43d 9b23 953d
000001c0: 6959 403e 93f5 213e fd0c a6be 8449 53be
000001d0: e1b8 afbd 8c55 7dbd 820e debc ce93 273e
000001e0: 50a9 113e 4b6a 683d c2f8 1abe 406b dd3d
000001f0: da11 23be ee8d 88bf 1e5d 19be ceff be3d
00000200: 5c51 623e d84c 1b3e f518 bdbd 76b9 e23d
00000210: fdee 9a3d 0a0a 90bd 2376 f8bc 514e 5d3e
00000220: 3e7f 0bbe aba1 843d 5ffe a53e bb0f 9d3c
00000230: e09d d13d 53dc 53be 96ce e93c 54ae c73d
00000240: 2358 abbe 1f88 883e 454a 4abc 0ce9 d6bc
00000250: 1807 053d 030a 5d3a 184b 3d3d 0b2a e9bd
00000260: 88b1 f83d ac9e 1c3e 2c26 db3d a8d8 aa3c
00000270: a7b0 81be 6767 b2be 6b92 233d cc5e 0fbb
00000280: 98b3 ad3d c2a4 86bc 4d53 0d3d b09c 28bd
00000290: 368e 0a3e 259f 923d 69fc fc3d 2ddd 9fbd
000002a0: a63c 2abe ad97 83bb 3d6c ccbd c9ee 543d
000002b0: a955 243e b607 2bbd bbea e33d b25d cb3d
000002c0: cc70 793e 4c43 78bd de55 233e 863f e4bd
000002d0: f7f6 9cbd 67fa ce3d 10f7 06bd 09e7 e13d
000002e0: 8fff 57bc 0052 5bbe f6f7 b03c f499 81bd
000002f0: e383 aabd 56bf 4e3e 3d0f 8c3d 71ef 513e
00000300: d1a2 b2be 3ca4 8cbd eb1b 3abe e3a4 893e
00000310: 9ec8 253e 0acb 40bd 16e4 2cbc 0820 85be
00000320: 9f5a 0dbc a579 5c3e 1349 10be 0f79 9cbd
00000330: 5127 a93c 118d 3bbe 6fdc ea3b 2192 103d
00000340: 9505 b33c 807b 98be e740 b0be ee44 183d
00000350: 4fae 773d 31c3 8b3e da0a f1bd ed91 c23d
00000360: e0b4 43be 0888 2f3e eafe 1dbe 0a8c a4bc
00000370: cdaa fdbd 85ec 93bc e837 09be 90ec 2dbe
00000380: da47 d5bd 3326 f6bd 8ab0 b23d 17b2 4fbc
00000390: afe8 b73c 1214 de3d d929 b53d b1d2 45bd
000003a0: c193 a5bd 9973 03be 0482 1e3e 12b3 5a3b
000003b0: 294e cbbe adf3 b8bd 0f21 1e3d 8378 8a3d
000003c0: 87b9 373e aa32 063c bba9 1a3e de62 9c3d
000003d0: 6aa0 d43c 4420 79be a295 a6bd 2bbc 563e
000003e0: e5f8 8bbd c108 c3be 2ad2 1cbe 797e 32bf
000003f0: a011 06bc f729 4a3a 0d05 18be 8df5 51bd
0.05065835 0.007956953 0.035295058 0.04846179 -0.0075589153 -0.076524414 0.03539491 0.04070947
0.143801 0.2768667 0.0604445 0.080882505 0.09261231 0.12251997 0.05121729 -0.08154163
-0.03253903 -0.01758183 0.05929507 0.08918913 0.03198872 0.02854172 0.024838462 -0.0052825864
-0.008229361 0.23885387 -0.6340083 -0.61543024 -0.87046486 -2.1545112 -0.053055912 -0.04108614
0.090806834 0.1500447 0.2256466 -0.00030130433 -0.0038152195 -0.09525931 0.026895689 0.10208077
-0.059788328 0.22965015 0.09037991 0.0936354 0.009341677 -0.14813483 -0.06829363 -0.23861521
-0.32549426 0.18736559 0.33049136 -0.2451624 0.022834677 -0.053515818 0.07707766 -0.2825465
-0.23936458 -0.13887142 0.09112651 0.055638812 0.17538606 -0.025869898 -0.017837605 -0.08442584
0.13308205 0.2823158 -0.16534708 0.04918998 0.12840328 -0.28701967 -0.0696102 -0.23877124
-0.024509134 -0.06866735 0.02629921 -0.23217261 0.066042796 -0.3331336 -0.14423956 -0.24219847
0.26863047 0.037479654 -0.62975866 -0.6830692 -0.021984864 -0.4267551 0.15210254 -0.5841775
-0.6364807 -0.14039455 -0.22347361 0.012327159 -0.015351543 -0.45346 -0.23314907 -0.45624453
0.007282805 -0.38794264 -0.74544233 -0.43698213 -0.30896872 0.1586652 0.054083407 -0.37608597
-0.25577798 -0.45339298 0.21302208 -0.43863484 -1.2845765 -0.14197251 0.09611693 0.07282182
0.18784107 0.15816335 -0.32431784 -0.20633513 -0.08580185 -0.061849162 -0.027106527 0.16364977
0.14224744 0.056741994 -0.15133956 0.10811472 -0.15924779 -1.0668314 -0.14976928 0.093261346
0.22101349 0.15166032 -0.09233276 0.1107053 0.07565115 -0.07033165 -0.03032977 0.21611907
-0.13622758 0.06476148 0.32420632 0.01917254 0.102351904 -0.20689516 0.02854089 0.09750047
-0.3346568 0.26666352 -0.012346809 -0.026234172 0.03247747 0.0008431973 0.046214193 -0.11384972
0.121432364 0.15294904 0.1070064 0.020855263 -0.25330088 -0.34844515 0.039934557 -0.0021876572
0.084815204 -0.016435985 0.03450327 -0.041165054 0.13530812 0.07159261 0.12352831 -0.07805858
-0.16624698 -0.004015884 -0.09981582 0.051985536 0.16048302 -0.0417554 0.11128756 0.0992998
0.24359435 -0.060611054 0.15950724 -0.11144929 -0.07664292 0.10106354 -0.03295046 0.110303946
-0.0131834885 -0.21418 0.021602612 -0.06328192 -0.08325937 0.20190176 0.06838844 0.20501496
-0.34889844 -0.06867263 -0.18174712 0.2688361 0.1618981 -0.047068633 -0.010552427 -0.26001
-0.008627563 0.21530779 -0.14090376 -0.076402776 0.02064863 -0.18315531 0.007167391 0.03529561
0.021853248 -0.29781723 -0.34424517 0.03717511 0.060468968 0.27297357 -0.11769648 0.095004894
-0.19111967 0.17141736 -0.15429273 -0.020086307 -0.12386093 -0.018057117 -0.13400233 -0.16984773
-0.10414095 -0.12019005 0.087250784 -0.012676737 0.02244982 0.10843672 0.088458724 -0.048296634
-0.080848224 -0.12837066 0.15479285 0.0033370894 -0.3970807 -0.090308525 0.038605746 0.06761267
0.17941867 0.00819079 0.1510381 0.07636045 0.025955398 -0.24328715 -0.08134009 0.20970218
-0.06834582 -0.38092616 -0.15314546 -0.6972423 -0.008182913 0.0007711942 -0.14845677 -0.051259566

fc1.bias f4 [128]
00000000: 2e53 873d f4bc e3bd 65cf e8bd 99c0 c4bd
00000010: 0f5a 0c3e 6d12 603d 8c23 5e3d ce41 94bc
00000020: 574a 50be 0148 f5bd 2891 b7bd 5ea4 3a3d
00000030: 7915 0fbe de30 52be 8090 7abc 5c08 683d
00000040: 75f1 87bd 2383 48bd 8859 0bbe ffb2 1ebe
00000050: e5a3 403b fee7 5abe b5ab 70bd 3662 a63c
00000060: 2f79 3b3d 6a63 5abd aa6f 11be 002d 66bd
00000070: 9dae 1c3d 1b9d 7a3d 9d9b 9b3d 4364 7abd
00000080: a0cf 9fbd 53c4 cf3d 71fd 70be da0e a13d
00000090: df63 9ebc f49a 36bd 8335 4e3d 4e69 38bd
000000a0: be6e 03be 9bed 873d b7e8 4cbd 0b39 f7bd
000000b0: d9bb c1bd 29f8 b03d f299 ab3d c189 7ebd
000000c0: 1643 18bc 4c8c b03d 73b5 213e 822f 833d
000000d0: ab60 203e bc17 cabd e36e 1a3d 79b8 90bc
000000e0: 4baf 51be d481 41be f65b 703c 6446 bc3d
000000f0: 0af6 fd3d 5fdd dbbc c753 f93d e302 91bc
00000100: 0ca8 a93d 887c e0bd 62b6 1dbe 7d86 063e
00000110: bdd9 8cbd 3b8e 4fbe 6666 30be e591 11bd
00000120: aaac cbbd 8063 e2bd 552e db3d a834 703d
00000130: 324b 2dbe 8370 b0bb a683 2abe 1d99 48be
00000140: 97c1 b13d f82c 083e d7c4 80be 44e0 583a
00000150: 62c0 513c 69f0 1fbe d492 b13d 0048 83bd
00000160: 53d2 a2bd 6a0c afbd d9ba 1f3e 56fa 2b3e
00000170: 3c4c b2bd 7fd8 27bd 4858 a2bd 7ecd 013e
00000180: e78c 4bbe 218f fabc 69fa 06be 9a39 353d
00000190: b580 243d 19f5 f83c 3d85 94bd 2d26 eb3d
000001a0: e295 193c 7cfb 55bc 2d49 80be ed80 68bc
000001b0: ae6e 50bd 4ee9 373e 5e6f 4b3d ba56 09bc
000001c0: 644e b83d d19a 32be 1855 ae3b 5e87 113e
000001d0: 6743 633d 3e03 953d 7f15 56be 5119 13bd
000001e0: 1787 bfbd f1c7 933e a03e ecbd 2a57 90bd
000001f0: 5f60 00be 7f36 24be b02e d43d 86de 9ebe
0.06607662 -0.11120024 -0.11367682 -0.096070476 0.1370623 0.054705072 0.05423312 -0.018097784
-0.20340858 -0.11976624 -0.08963233 0.04556691 -0.13973035 -0.20526454 -0.015293241 0.056648597
-0.06637851 -0.048953187 -0.13608372 -0.15497969 0.0029394564 -0.2137756 -0.058757503 0.020310502
0.045769867 -0.053317465 -0.14202753 -0.05619526 0.03825246 0.061184984 0.0759804 -0.061130773
-0.07803273 0.10144868 -0.2353418 0.07864161 -0.019334732 -0.04458137 0.050344 -0.0450223
-0.12835214 0.066371165 -0.05002662 -0.12071427 -0.09459657 0.08641083 0.08378972 -0.06214309
-0.009293338 0.086205095 0.15791874 0.06405546 0.15661876 -0.09867808 0.037703406 -0.017666088
-0.20477025 -0.18897182 0.014670363 0.091931134 0.12400444 -0.026838956 0.121741824 -0.017701572
0.082840055 -0.109612525 -0.15401605 0.1313724 -0.06877468 -0.202691 -0.17226562 -0.035539526
-0.099450424 -0.11054134 0.107021965 0.058643967 -0.16923216 -0.005384506 -0.16651782 -0.19589658
0.086795025 0.13298404 -0.25150177 0.0008273164 0.012802215 -0.15619053 0.08670583 -0.06410217
-0.079502724 -0.0854729 0.1559862 0.16794714 -0.08705947 -0.04097795 -0.079269946 0.12676045
-0.19877969 -0.030585827 -0.13181461 0.044244386 0.040161807 0.03039031 -0.07251976 0.11481891
0.009374114 -0.013060447 -0.2505583 -0.014190895 -0.050886802 0.17960092 0.049666755 -0.008382494
0.08999327 -0.1744187 0.0053202026 0.14211795 0.0554842 0.07276009 -0.20906638 -0.035912815
-0.09351938 0.2886348 -0.11535382 -0.07047875 -0.12536763 -0.16036414 0.103604674 -0.31029147

fc2.weight f4 [64, 128]
00000000: d39a e5bd d345 90bd 9013 823b 02c0 1c3e
00000010: e823 64be 188d 88bc 682a 5dbe f157 803d
00000020: 8abb aabe 7955 6e3e fee8 1cbd 07cf bfbe
00000030: dde3 d7bd 3b34 073d 78c1 7ebe b87e 4a3e
00000040: 0dd3 19bc 1095 ad3e 56e3 80be fa11 5d3e
00000050: cfe1 f53d 0c37 a4be c56c 953e 04df 51bc
00000060: 5f73 07be c1ee d2be 3001 483d f234 a53d
00000070: b0e9 48bd fada a63c ea60 6dbe f453 723e
00000080: 08a6 243d 99c9 13bf f10f 89be 1a7e 38be
00000090: f954 c73e c0ec 99bd bf7c 04bd 77fc 2cbe
000000a0: b604 26bf ee3c b4be ca98 3cbe 30b2 063e
000000b0: e08f adbe 411b df3d b559 a6bd 94dd 2dbe
000000c0: 596e 04bf e8c4 65be bea5 7dbd f77e f3bd
000000d0: 666e f83d fc9a 41bd 5172 b9be a672 0f3d
000000e0: 7950 86bd 09ed 923d 3c76 dc3d dd5f 1cbf
000000f0: 9c26 54bf 1b65 2c3e 8cd6 863e a994 b13e
00000100: 220a d63d 3fda 8cbe 3895 cabe a354 24be
00000110: 7c23 643b fad3 b13d 3d59 2bbf c445 4d3e
00000120: 8f86 c7be aaf6 af3e 68c9 01bf bc3b 66be
00000130: 94de 3b3e 3f20 00be 5624 efbe 7a9d 5fbe
00000140: 930e 3abe a910 c8be 3294 a83c 7931 3bbf
00000150: a95d 893e 2847 b5bc 5329 3ebd c0df 883d
00000160: f33a 923d 0223 c3be 415b 9abe b2fb bdbd
00000170: 6ec8 cdbe f085 39be 32b9 5c3e 560e 80bd
00000180: 6745 8fbe 8646 2d3e 43c9 763e 8384 4abe
00000190: 7cca 913e 4099 a0be 0a6b 9b3d b00b 8abe
000001a0: 61f9 11be b49b 1bbf b52b 34be 212f a6bd
000001b0: db21 16bd 178f 363e a512 fcbe 3c14 fabd
000001c0: 7eb4 85be dd81 62bf 14d7 51be e8cb 8d3c
000001d0: 2a9e 5ebe ff13 cfbd 3522 d63d a00b 19bf
000001e0: 350b 923e 3b57 16bf a7e8 a4be a82c 1abf
000001f0: e5c9 ca3d 44cc 913d 93fa 22be 67c8 fabd
00000200: d3f3 99bd 12da a3bd 7832 0c3e cfc5 1a3e
00000210: c4fc fb3d 496c 043e ef86 d9bb 4c3a 703d
00000220: d5b2 593e ffd4 a5be c4b9 18be 2525 20be
00000230: edba d1bd d9bc 80bd 0b53 c0be 5759 b53e
00000240: 957a d6be e818 1dbe 6c24 1ebf b4ff 83be
00000250: 7b85 10be 7047 77bd f7fb 82be 7a6a 4ebe
00000260: 122a 3ebe e52b 173e 4e8d d1bc f4e2 003e
00000270: c8fd d4bd 3ee7 e83d 396f 96bc 045e 0abe
00000280: d2a3 14be e6d5 82ba 5f1e 963e 392f a4bd
00000290: b23c 12bd 6575 a4bd 32b4 42be 14ce f8be
000002a0: 3a7e 9dbe 5d32 90be 5497 fd3c 1461 1cbe
000002b0: afe9 16be a72d bd3c 9af8 4bbe 0b22 64bc
000002c0: 3e26 15bc dda0 46bd ccf5 e9bb 341a e93d
000002d0: e282 5abe 6607 76be 90c4 37be 2546 97be
000002e0: 737f 08bf 7ca6 86be 6afb a7be 9e2e 78be
000002f0: 1c72 f2be 1d21 0cbd bb92 2f3d fd53 6e3e
00000300: ed26 68be c45a 69be 5b7f bbbd 2db8 07be
00000310: bbe7 98be a5a1 19be 13be 5ebd 7124 563e
00000320: e19d 6ebc f833 89bc 10cc e83d 9a06 e5be
00000330: 145b adbe 016b c13c f3da 99be 0c2f 0dbe
00000340: 6f19 97be 4027 38bd 861b a0bd 0033 c23c
00000350: 0d4b aebe 5094 1cbe 74c5 0fbd b660 d6bd
00000360: 6a3e 3c3e f797 e2bd f1c6 373e 4fc7 1bbe
00000370: 7768 0e3c 6d9c 18be 35bd a8be 8765 bebe
00000380: 19cb 98bc 378a e5be 2f01 a23d 14d7 d7bd
00000390: 8e1f f43d 8b77 833e 71b3 dabe b208 a9be
000003a0: 3b39 8abe f7a7 3dbc bee8 90be b0f7 503e
000003b0: 86f8 0f3e eefb 203d 3ed9 bb3d 957e 4dbe
000003c0: c915 663e 4586 d7bd 7d74 13be e963 30bd
000003d0: 92d2 95be 7441 d5be 0eb9 6c3d ad16 053e
000003e0: 8ef8 173e fe28 4bbb 40b2 953b e86e f8bd
000003f0: cc5a ffbe 2094 14be 883e d3bd 6e2b 04be
-0.11211171 -0.07044568 0.003969617 0.1530762 -0.22279322 -0.016668841 -0.21598208 0.062667735
-0.33346206 0.23274793 -0.038308136 -0.37462637 -0.10541508 0.033008795 -0.2487849 0.19774902
-0.009388697 0.33902788 -0.25173444 0.21588889 0.1200596 -0.32073247 0.29184547 -0.012809519
-0.13227604 -0.4119778 0.048829257 0.08066739 -0.049050987 0.020368088 -0.23181501 0.23664838
0.040197402 -0.5772949 -0.26769975 -0.18016854 0.38932016 -0.075158596 -0.03234553 -0.16893183
-0.6485094 -0.35202736 -0.1841766 0.1315391 -0.3389883 0.1089387 -0.08122579 -0.16979057
-0.5173088 -0.22438395 -0.061925642 -0.11889451 0.12130432 -0.047266945 -0.3622003 0.035021447
-0.06558318 0.07174117 0.10764739 -0.61083776 -0.82871413 0.16835444 0.2633556 0.3468373
0.104511514 -0.2751026 -0.3956697 -0.16047911 0.003481119 0.086830094 -0.6693304 0.20046145
-0.38969848 0.34367877 -0.50697947 -0.22483724 0.18346626 -0.12512301 -0.4670741 -0.21837416
-0.18169622 -0.3907521 0.020578478 -0.73122364 0.2682927 -0.022128657 -0.04642613 0.06683302
0.0714015 -0.38112646 -0.30147746 -0.09276523 -0.40191978 -0.181175 0.21555021 -0.06252734
-0.27982637 0.16921434 0.24100213 -0.19777112 0.28474796 -0.3136692 0.075887755 -0.26962042
-0.14255287 -0.6078446 -0.17594798 -0.08114458 -0.03665338 0.17828022 -0.49232975 -0.12210891
-0.26114267 -0.88479406 -0.20492202 0.017309144 -0.21740022 -0.10111236 0.10455743 -0.59783363
0.28524175 -0.58726853 -0.3220875 -0.6022439 0.099017896 0.07119039 -0.15915899 -0.12245255
-0.07517209 -0.08000578 0.13691127 0.1511452 0.123040706 0.12931933 -0.0066384 0.058649346
0.21259625 -0.32389066 -0.14914614 -0.1563917 -0.102407314 -0.0628602 -0.37563357 0.35419723
-0.41890398 -0.15341532 -0.61774325 -0.25781024 -0.14113419 -0.060370862 -0.2558286 -0.20157805
-0.18570736 0.14762838 -0.025580075 0.12586576 -0.103999674 0.11372231 -0.018363582 -0.13512427
-0.14515617 -0.000998196 0.29320046 -0.080168195 -0.035702415 -0.08030204 -0.19014052 -0.48594725
-0.30760366 -0.28163424 0.030955948 -0.15271407 -0.1473758 0.023093058 -0.19919053 -0.013924132
-0.009103356 -0.048493255 -0.007139897 0.11381951 -0.2133899 -0.2402626 -0.17946076 -0.29545704
-0.5331947 -0.26298892 -0.32809 -0.24236533 -0.47352684 -0.034211267 0.042864542 0.23274226
-0.22671099 -0.2278853 -0.091551505 -0.13253851 -0.29864296 -0.15003069 -0.054380488 0.20912339
-0.014564008 -0.016748413 0.11367047 -0.447316 -0.3385855 0.023610594 -0.30049857 -0.13787478
-0.29511592 -0.044959307 -0.0781775 0.02370596 -0.34041634 -0.15290952 -0.035100415 -0.10467665
0.18383184 -0.11064141 0.17946984 -0.15212749 0.008691899 -0.14903422 -0.32956854 -0.37186834
-0.018651532 -0.44832012 0.07910382 -0.1053907 0.11920081 0.25677142 -0.42715028 -0.33014446
-0.26996788 -0.0115756905 -0.28302568 0.20406985 0.14059648 0.03930276 0.09172295 -0.20067818
0.22469248 -0.10523657 -0.14399906 -0.04306403 -0.29262215 -0.416515 0.05779367 0.12996931
0.1484091 -0.0030999775 0.004568368 -0.12130529 -0.4987396 -0.1450963 -0.10314661 -0.12907192

fc2.bias f4 [64]
00000000: 9509 89bd a3e8 cabc 3e3d aa3e 7848 1d3e
00000010: 2c6e 78bb 6931 febc 492f 853e a18c e73c
00000020: fd72 f1bd f69b 873d 2917 98bd e383 073e
00000030: 6f67 1ebd f358 02be c6c5 6a3d 6850 09be
00000040: 3545 e6bd 68ab d63d 8943 e23e 9e9f c93c
00000050: 1e6b 2abe 7408 393e 9647 d03d 7d38 9c3d
00000060: 12d7 c3bd f806 93bd ebd2 cf3c 5feb 5e3b
00000070: 9ac2 65bc 502c 6f3e 822d 79bd e7ae e33e
00000080: 68fa 683e ab29 543e a500 593e 87a8 f53e
00000090: 6e39 c43c f80d 2abe a004 72bc 6def 9cbc
000000a0: 84ea ce3c ab5c cdbd 0982 d1bc 8500 4c3c
000000b0: 29e8 4e3d 0dda 17bd e320 63bb 4416 cb3e
000000c0: 2d37 a2bd e995 29bd 5022 1a3e 93ca 4cbd
000000d0: d9b8 4abd 91f9 b23e c887 58bd cb32 6fbc
000000e0: 53ed 523e 5d4b 45bd b3e9 be3c 19e7 25be
000000f0: 0a9c c8bd 8073 803d 1425 64bd ccf6 aebb
-0.06691281 -0.024769133 0.3324985 0.15359676 -0.0037907464 -0.03102942 0.26012638 0.0282653
-0.117895104 0.06621544 -0.074262924 0.13233905 -0.03867286 -0.12729244 0.057317518 -0.13409579
-0.11243669 0.10481912 0.4419215 0.024612244 -0.16642424 0.18069631 0.10169904 0.07627962
-0.09562506 -0.071790636 0.025369128 0.0034014804 -0.014023447 0.23356748 -0.060834415 0.44469377
0.22751772 0.2071902 0.21191652 0.4798014 0.023953166 -0.16606891 -0.0147716105 -0.019157136
0.02525831 -0.10027441 -0.0255747 0.012451296 0.050514374 -0.037073184 -0.0034657053 0.39665425
-0.0792068 -0.04140273 0.15052152 -0.049997877 -0.04949269 0.3495603 -0.052863866 -0.014599512
0.20598345 -0.048167575 0.023304796 -0.16201438 -0.09795387 0.0627203 -0.055699423 -0.005339479

fc3.weight f4 [4, 64]
00000000: 8314 533d 437b b13d c1c9 e13d 587a 233e
00000010: 1143 2e3e ce7c 083e 7c4f b13d 5797 ac3d
00000020: 9288 15bf eb5e f2bd 27f6 99be cd5c 063d
00000030: 1715 a63e 5609 56be 3b26 c73e a08d f1bc
00000040: 4d77 4a3d 285e fa3d ae29 203e f116 bfbd
00000050: 7d0b f9bd 8922 8f3d 4c33 b93c d07d 1e3e
00000060: f53c 8bbe 99a5 54bd 5b5c 28bf 0ca1 df3d
00000070: 88e2 863d d75c 083e b412 a7bd 5ab5 323e
00000080: ec7d 023e d430 383e dda1 593e 0270 693e
00000090: 8bba 863e d6d3 c6be 98c4 143e 5de6 233d
000000a0: 0098 623e 7fd6 0abf 6cdb 9fbe 2cb0 893d
000000b0: d52d 903e 103f cf3c d152 81be 3fe4 103e
000000c0: 41e5 08be fa2e f6be a597 3c3e 009f e2bd
000000d0: 9ad1 113e 220a 113e 9886 e9be dad0 ca3e
000000e0: 7b06 c73b 07d1 a63d 5e68 9e3e ea02 a8be
000000f0: 5430 8a3d d9db e23e bc59 17be 20e4 c1be
00000100: 2dff 1cbf 79aa a3bd 12f2 3c3d 9069 213e
00000110: 0db7 a43e 9a59 913e 8e8a 433e fd8c ac3d
00000120: 6656 853e 98f7 e83d 5f04 d1be e694 1c3d
00000130: 88a2 0f3f 1061 3fbe 7acb c83e a6d0 9d3d
00000140: 2670 c8bd 62fb 123e 0bc4 2d3e 631c 443d
00000150: 9a92 0cbe 1f5c c33d e7e5 b83c 945b 2a3e
00000160: b232 8dbe 0314 803e ab89 0e3d 9421 c3bb
00000170: 167e 893c bbd8 a03d e2fe 1ebd 9c58 f23d
00000180: d935 013e 14dc 213e 7d7f 6a3e 0f02 163e
00000190: 42c6 843e 7e2f 523e 733f 8d3e 854a 573d
000001a0: 4d98 4c3e dfec f6bd f7b0 303e bf10 f33d
000001b0: fe82 7b3e 6074 4bbc 3eed afbd 11d9 443e
000001c0: 343f 3fbe 62e3 f93d 78c5 453e a3da d2bd
000001d0: 09fd a3be 173a 6a3e 5c48 e43d 59fc ee3e
000001e0: 9859 aa3a c5e5 ae3d 6286 b83c 6b54 a1be
000001f0: 80a6 8c3a 0ed1 d43e 0d5e 60bc b597 babe
00000200: 97b5 113e 143b 4fbe 0535 103e 7f80 2bbd
00000210: 7d82 f63e 6731 003e b665 8f3d ff0f 13be
00000220: 7c40 cf3e 55bb d23e 27fb d9bc e3f5 bc3d
00000230: 4ab2 0b3f a3ae b23d fa14 393e 630a d3be
00000240: dad9 aebe 33da 0a3c 1347 463e 11ca 00bb
00000250: 2cba f7bc c5b4 273e 0686 803e 8c32 043e
00000260: d962 99be 7dee 99bd 32aa 94bd 7672 b63d
00000270: b88d d0be ff7c e23d bd9d 123e f29d 393e
00000280: a1d6 7d3e ed8d 163e cab4 a93e dc1c 3d3e
00000290: 7d11 b93e 905b 27bd cd82 a5be 4e98 9a3e
000002a0: dcf1 593e e06d eabd 1a9a 76be d72c cb3e
000002b0: 9a93 953d e933 c2bb 5092 ddbd aed8 933d
000002c0: d92b b0be 31f9 99bd 2399 073d 7e6b 0abf
000002d0: 5b4d 93be 423b e73d 737c 733c 1e5b 183f
000002e0: 18fa 683e 33b0 c33e 198c 94be dd61 82be
000002f0: cad2 2c3d 9029 113e 8c26 073e c965 15be
00000300: cb4c 33be a760 15bf c9c9 eb3d e62f 523e
00000310: 93f9 9b3d a621 d43e 2084 923d 8a78 933e
00000320: 2620 803e 1b87 163e f6b8 1cbe 83e6 863e
00000330: 8376 8ebd 7026 4dbe b814 993e cd62 063d
00000340: c831 09be cc83 403e e788 303e cd15 69bd
00000350: 0e4e b9be b596 98bd 1660 1e3e 7c26 843e
00000360: f0c8 c3be dee9 b93e 10b9 06bf ed78 b23e
00000370: 9057 08bf e212 be3d ae6e b3be e4c4 3a3e
00000380: 652b 083e 65bf 8cba afaf 9e3e a420 433e
00000390: 2c65 a83e c81d 063f e94f 893d d235 363e
000003a0: 65ce 253e e230 133e d7ad ed3d e5a3 58be
000003b0: 90ec cc3d 92bd 0e3b a8dc c23d f00e 1f3e
000003c0: fad8 aebe 0b2c 42be 85e0 a03e 13b6 43be
000003d0: a0d0 83be 0bdf 993d 121f 873d 0582 a63e
000003e0: e71e 223e 1329 2b3d d17c e4be e3b3 fabd
000003f0: ff92 7ebd 146c cf3e ffd6 80be c5aa b43e
0.051533233 0.086660884 0.1102481 0.15964639 0.17017771 0.13328859 0.086577386 0.08427303
-0.58411515 -0.118345104 -0.30070612 0.032803345 0.32437965 -0.20901999 0.38896355 -0.029486477
0.04943018 0.1222499 0.156409 -0.093305476 -0.12160394 0.06989009 0.022607468 0.15477681
-0.27194944 -0.05191574 -0.65765923 0.10919389 0.06586176 0.13316666 -0.08157864 0.17451993
0.12743348 0.17987376 0.21253152 0.22796634 0.26314196 -0.38833493 0.1452812 0.040014613
0.22128296 -0.54233545 -0.31222093 0.06723055 0.28159967 0.025298625 -0.25258496 0.14149569
-0.13368703 -0.48082715 0.18417223 -0.11065483 0.14240113 0.14164022 -0.456105 0.39612466
0.0060737706 0.081453376 0.30939 -0.32814723 0.06747499 0.44308355 -0.14780325 -0.37869358
-0.6132687 -0.079914995 0.046129294 0.15762925 0.32170907 0.28388673 0.19095823 0.08425329
0.2604248 0.1137535 -0.40823647 0.038227938 0.5610738 -0.1868937 0.3921774 0.07705812
-0.097870156 0.14353707 0.16969316 0.047878634 -0.13727799 0.09539055 0.022570563 0.16636497
-0.2757774 0.25015268 0.03479926 -0.0059549306 0.016783755 0.07853838 -0.038817294 0.11833307
0.12618198 0.1580661 0.22900195 0.14649223 0.2593251 0.2052593 0.2758747 0.0525613
0.19979973 -0.12056898 0.17255007 0.118684284 0.24561688 -0.012417883 -0.08590172 0.1922343
-0.18676454 0.12201573 0.1931361 -0.10295608 -0.32028988 0.22873722 0.11146614 0.466769
0.0012996672 0.08539919 0.022525016 -0.31509718 0.0010730773 0.41565746 -0.013694298 -0.36443868
0.14229427 -0.2023738 0.14082725 -0.04187059 0.4814643 0.12518845 0.07001822 -0.14361571
0.40478885 0.41158548 -0.026609017 0.09226587 0.5456892 0.087247156 0.18074408 -0.41218862
-0.34150583 0.008474874 0.1936305 -0.001965169 -0.03024014 0.16377552 0.25102252 0.12909907
-0.29958227 -0.07516191 -0.07259025 0.089085504 -0.40733123 0.11058997 0.14317985 0.18126658
0.24788906 0.14702578 0.33145744 0.1846804 0.36146155 -0.040858805 -0.32326356 0.30194324
0.21283668 -0.11446738 -0.24082223 0.39682648 0.073035434 -0.0059265983 -0.108189225 0.07219063
-0.34408453 -0.075182326 0.033105027 -0.5407027 -0.28769955 0.112905994 0.014861214 0.59514034
0.22751653 0.38220367 -0.29013136 -0.2546529 0.04219321 0.14176011 0.13198298 -0.14589609
-0.17509763 -0.58350605 0.11513097 0.20526084 0.07615962 0.41431922 0.07154107 0.28802902
0.25024527 0.14699976 -0.15304932 0.2634774 -0.06956198 -0.20034194 0.2989862 0.032809068
-0.13397896 0.18800277 0.17239724 -0.056905556 -0.36192364 -0.0745062 0.15466341 0.2581061
-0.3823924 0.3631124 -0.5262613 0.34857884 -0.5325861 0.09280945 -0.3504538 0.1823917
0.13297804 -0.0010738192 0.3099341 0.1905542 0.32889688 0.5238919 0.06704695 0.17793968
0.16192015 0.14374116 0.11605423 -0.21156271 0.10006058 0.0021780473 0.09514743 0.15533042
-0.34149915 -0.18962114 0.31421295 -0.19112425 -0.25745106 0.07513245 0.06597723 0.32521072
0.15832101 0.04178722 -0.44626477 -0.12241342 -0.062151905 0.40512145 -0.2516403 0.35286537

fc3.bias f4 [4]
00000000: 270a c13e 5166 7d3e 711e 993e e156 893e
0.37703058 0.24746062 0.29906037 0.26824096
