udacity/Navigation/model.pth (torch_old, 54503 bytes, 6 tensors)

fc1.weight f4 [128, 37]
0.065624736 0.019326987 0.026145644 0.050785292 0.0067707384 -0.067859024 0.041786935 0.032562062
0.16128474 0.27587092 0.055159092 0.09718296 0.09397305 0.12873043 0.07837094 -0.094048426
-0.022610193 -0.0073414003 0.087744296 0.103783205 0.03408474 0.039657712 0.020667093 0.0070196176
-0.022413526 0.24781415 -0.664294 -0.580018 -0.91401196 -2.2021062 -0.029447014 -0.04190384
0.08604099 0.15027714 0.24152146 -0.0059012994 -0.0027595037 -0.08020075 0.09002276 0.046444308
-0.11105699 0.20184182 0.076014824 0.086546205 0.032624085 -0.14633107 -0.053252015 -0.24262121
-0.34450075 0.23755829 0.31308758 -0.25455806 0.056169357 -0.049242876 0.033234637 -0.3083399
-0.310328 -0.13018617 0.18592279 0.055042684 0.104040876 0.014502201 -0.054154344 -0.056048892
0.17799641 0.25918716 -0.14248389 0.07645822 0.13264634 -0.31428254 -0.1013298 -0.23310737
-0.011952576 -0.07891592 0.02455283 -0.1798609 0.038921975 -0.32390097 -0.1701322 -0.22037302
0.28921434 0.020239221 -0.61118925 -0.6738486 0.080639355 -0.46972215 0.114002146 -0.63571924
-0.5999485 -0.12929916 -0.18207864 0.022103008 -0.035209592 -0.45981318 -0.23654403 -0.52481157
0.025352186 -0.42132682 -0.7036778 -0.4197065 -0.2661108 0.1508888 0.05634303 -0.46556327
-0.27272677 -0.5413935 0.22398086 -0.40744728 -1.4278721 -0.12760638 0.0939158 0.11875332
0.17166491 0.111715384 -0.33391702 -0.21219993 -0.11116295 -0.055637654 -0.071279064 0.20943362
0.14952931 0.058922093 -0.10462413 0.103886925 -0.23142096 -1.0912889 -0.16387945 0.12332237
0.18419378 0.14511693 -0.030305205 0.06893361 0.023727184 -0.013205245 -0.018583119 0.18412371
-0.15317656 0.06134303 0.30067217 0.04886581 0.069396816 -0.27462238 -0.005475862 0.1495194
-0.3556086 0.21927392 -0.028611714 -0.068370566 0.025098504 0.006172175 0.03852276 -0.11591649
0.08675864 0.16307692 0.10613112 0.014627949 -0.3153395 -0.36069176 0.04510132 -0.0084537035
0.0739671 -0.010461414 0.05259509 -0.013061417 0.11314693 0.04001819 0.14095753 -0.12364703
-0.20100096 0.009983658 -0.09630159 0.054034244 0.15126766 -0.044906925 0.09878183 0.11176007
0.23326233 -0.037273195 0.14609478 -0.095932804 -0.095263 0.115230665 -0.042899802 0.13559121
-0.017320482 -0.19397208 0.022649884 -0.08337066 -0.13499407 0.23493683 0.046143588 0.2409542
-0.38422424 -0.098688364 -0.14857544 0.2833255 0.13364358 -0.051010095 -0.03463995 -0.2606696
-0.03521861 0.20274642 -0.13398603 -0.061927773 0.037507135 -0.17292878 -0.013101071 -0.007144044
0.05147392 -0.3213577 -0.3144167 -0.018361589 0.1207384 0.24298094 -0.1098519 0.02906579
-0.2087955 0.21927266 -0.07986778 -0.05020699 -0.1445495 -0.010688888 -0.16692817 -0.15375748
-0.05930978 -0.12380989 0.08785645 -0.026858885 0.028916094 0.14851362 0.10174669 -0.03576921
-0.028711028 -0.12401624 0.16850916 -0.062303897 -0.34388286 -0.07402161 0.045964837 0.0596204
0.1705513 0.015569473 0.1640071 0.075304724 0.029857852 -0.24577473 -0.097437136 0.22182935
-0.061140362 -0.38236848 -0.1924628 -0.72427624 -0.007342639 -0.009728425 -0.18338795 0.0470545
00000000: 4366 863d a153 9e3c 642f d63c 3d04 503d
00000010: 12dd dd3b acf9 8abd c728 2b3d cc5f 053d
00000020: d427 253e f43e 8d3e 80ee 613d dc07 c73d
00000030: f174 c03d e9d1 033e f280 a03d 769c c0bd
00000040: 0339 b9bc 2190 f0bb 48b3 b33d 4a8c d43d
00000050: 719c 0b3d 2070 223d 094e a93c d204 e63b
00000060: 929c b7bc fec2 7d3e 2c0f 2abf 0f7c 14bf
00000070: b0fc 69bf 4fef 0cc0 dd3a f1bc 5ca3 2bbd
00000080: 4236 b03d 40e2 193e 6751 773e b05f c1bb
00000090: cad8 34bb 4a40 a4bd da5d b83d 633c 3e3d
000000a0: d971 e3bd 9faf 4e3e a9ad 9b3d 233f b13d
000000b0: d5a0 053d d0d7 15be c91e 5abd b271 78be
000000c0: 6762 b0be 7b42 733e 044d a03e 6f55 82be
000000d0: d711 663d e6b2 49bd 0b21 083d bade 9dbe
000000e0: 50e3 9ebe 864f 05be 8b62 3e3e 7074 613d
000000f0: 6213 d53d a49a 6d3c f2d0 5dbd 8693 65bd
00000100: b144 363e 2eb4 843e 4ce7 11be 2196 9c3d
00000110: 71d4 073e a4e9 a0be 0086 cfbd b3b3 6ebe
00000120: bdd4 43bc ab9e a1bd 0423 c93c 752d 38be
00000130: a66c 1f3d 59d6 a5be 2337 2ebe 77a9 61be
00000140: e713 943e b9cc a53c e676 1cbf 5881 2cbf
00000150: 3f26 a53d 6c7f f0be f579 e93d 7fbe 22bf
00000160: 3a96 19bf 0067 04be d372 3abe 5e11 b53c
00000170: ef37 10bd a26c ebbe 9938 72be 0d5a 06bf
00000180: 63af cf3c 26b8 d7be 3a24 34bf c5e3 d6be
00000190: ad3f 88be 9882 1a3e f3c7 663d 4f5e eebe
000001a0: d8a2 8bbe c498 0abf 3d5b 653e ee9c d0be
000001b0: 83c4 b6bf 3fab 02be ed56 c03d f134 f33d
000001c0: edc8 2f3e 09cb e43d 2cf7 aabe f04a 59be
000001d0: 67a9 e3bd 4fe4 63bd c2fa 91bd c475 563e
000001e0: 361e 193e 4b58 713d 2d45 d6bd abc2 d43d
000001f0: 9ef9 6cbe 5baf 8bbf 04d0 27be 7090 fc3d
00000200: 4b9d 3c3e 8899 143e 9f42 f8bc 112d 8d3d
00000210: 835f c23c d05a 58bc a03b 98bc ed8a 3c3e
00000220: 51da 1cbe d442 7b3d b4f1 993e 8427 483d
00000230: eb1f 8e3d 4e9b 8cbe dc6e b3bb 9d1b 193e
00000240: 5512 b6be 5889 603e 1d63 eabc de05 8cbd
00000250: 619b cd3c f53f ca3b 0bca 1d3d a065 edbd
00000260: 84ae b13d a3fd 263e 465b d93d 11aa 6f3c
00000270: 2e74 a1be 97ac b8be 29bc 383d 6781 0abc
00000280: 107c 973d 5a66 2bbc f36d 573d 8eff 55bc
00000290: 94b9 e73d 1dea 233d 2c57 103e a73a fdbd
000002a0: 32d3 4dbe 7f92 233c c539 c5bd 0353 5d3d
000002b0: e9e5 1a3e 53f0 37bd 214e ca3d 77e2 e43d
000002c0: 52dc 6e3e c7ab 18bd df99 153e 6b78 c4bd
000002d0: 3f19 c3bd 0efe eb3d b4b7 2fbd 6cd8 0a3e
000002e0: afe3 8dbc 9ea0 46be 408c b93c 3dbe aabd
000002f0: e33b 0abe 4893 703e 0f01 3d3d b3bc 763e
00000300: 0ab9 c4be 201d cabd 2924 18be 0a10 913e
00000310: ddd9 083e f6ef 50bd 9fe2 0dbd 7c76 85be
00000320: 6441 10bd c29c 4f3e a233 09be faa7 7dbd
00000330: 15a1 193d 3e14 31be e0a5 56bc 9618 eabb
00000340: 51d6 523d ff88 a4be 3afb a0be 0b6b 96bc
00000350: b245 f73d ffcf 783e 08fa e0bd 611b ee3c
00000360: 7dce 55be 0389 603e b891 a3bd d8a5 4dbd
00000370: c904 14be 7220 2fbc 38ef 2abe 9a72 1dbe
00000380: d0ee 72bd 0a90 fdbd 15ee b33d 2a07 dcbc
00000390: 72e1 ec3c f413 183e 9260 d03d bc82 12bd
000003a0: 6433 ebbc 3afc fdbd aa8d 2c3e 5f32 7fbd
000003b0: 6a11 b0be a498 97bd a045 3c3d 8534 743d
000003c0: 00a5 2e3e 1a17 7f3c 7af1 273e 5d39 9a3d
000003d0: 7498 f43c 5fac 7bbe 1f8d c7bd 3c27 633e
000003e0: 516e 7abd cdc5 c3be f814 45be 2b6a 39bf
000003f0: 859a f0bb f963 1fbc 0dca 3bbe 38bc 403d

fc1.bias f4 [128]
0.07386221 -0.115055814 -0.10964189 -0.10358873 0.13050388 0.035297826 0.055946935 -0.021224147
-0.20184743 -0.09352522 -0.08277353 0.028800726 -0.1461039 -0.21824591 -0.015994847 0.036009803
-0.060610466 -0.0647686 -0.14863567 -0.16122545 0.009150195 -0.205064 -0.06680125 0.023848493
0.051788498 -0.059518788 -0.14309038 -0.06683073 0.030443465 0.0551329 0.084766135 -0.059382405
-0.08589867 0.07451147 -0.24945201 0.07400258 -0.04005625 -0.053311713 0.05558184 -0.03998951
-0.13823496 0.06483061 -0.046257224 -0.10892156 -0.09537474 0.08070149 0.07753475 -0.048378877
-0.013030277 0.09580645 0.1613237 0.074437544 0.15749973 -0.1053117 0.02862087 -0.043151744
-0.20614253 -0.19321112 0.015933774 0.08568699 0.122664906 -0.025942901 0.11674554 -0.01237988
0.077823594 -0.08809984 -0.18545449 0.116944395 -0.0612052 -0.19064382 -0.1822503 -0.030644238
-0.10194213 -0.10944675 0.13016169 0.07153264 -0.18887675 -0.012198231 -0.16753797 -0.2112708
0.08962346 0.13646054 -0.2607584 0.013281707 0.0044044 -0.13359395 0.09398118 -0.059419833
-0.06928696 -0.0907269 0.15612032 0.17315024 -0.07735688 -0.035807166 -0.08896468 0.11262857
-0.19583294 -0.049618304 -0.1353183 0.036853302 0.037994385 0.035543337 -0.075939916 0.12213284
-0.012917988 -0.022358436 -0.25791436 -0.027859028 -0.039630704 0.17964952 0.06302303 -0.011275419
0.09172723 -0.1580436 0.0018743669 0.14896902 0.054708757 0.03277015 -0.22647497 -0.03941995
-0.10562674 0.30672792 -0.12092743 -0.0718688 -0.13761215 -0.16464482 0.095315 -0.29223123
00000000: 1245 973d 62a2 ebbd ed8b e0bd 5426 d4bd
00000010: cfa2 053e 7494 103d 9d28 653d 43de adbc
00000020: 18b1 4ebe 278a bfbd 2b85 a9bd 80ef eb3c
00000030: 439c 15be db7b 5fbe a007 83bc 047f 133d
00000040: ae42 78bd 66a5 84bd f333 18be 4918 25be
00000050: b3ea 153c 4cfc 51be 18cf 88bd ea5d c33c
00000060: 2d20 543d f9c9 73bd 4986 12be 8dde 88bd
00000070: 9364 f93c 09d3 613d de99 ad3d f73a 73bd
00000080: a4eb afbd 7899 983d 5970 7fbe aa8e 973d
00000090: 0612 24bd 625d 5abd c9a9 633d 0acc 23bd
000000a0: 778d 0dbe e9c5 843d 3778 3dbd 4412 dfbd
000000b0: d553 c3bd d346 a53d 8aca 9e3d ee28 46bd
000000c0: f17c 55bc 2c36 c43d 0a32 253e b672 983d
000000d0: 9c47 213e a9ad d7bd 5176 ea3c e2bf 30bd
000000e0: 0717 53be 23d9 45be 8c87 823c a97c af3d
000000f0: bd37 fb3d 3586 d4bc 4918 ef3d fbd4 4abc
00000100: fa61 9f3d b06d b4bd c8e7 3dbe 8b80 ef3d
00000110: 4eb2 7abd 2238 43be d39f 3abe a009 fbbc
00000120: 09c7 d0bd 9e25 e0bd 1b49 053e b47f 923d
00000130: e868 41be 17db 47bc 138f 2bbe 5f57 58be
00000140: 818c b73d 50bc 0b3e 2082 85be 849b 593c
00000150: c952 903b dacc 08be 3479 c03d 3662 73bd
00000160: 52e6 8dbd 06cf b9bd 01de 1f3e 4c4e 313e
00000170: 496d 9ebd 89aa 12bd 1d33 b6bd cfa9 e63d
00000180: 6e88 48be 903c 4bbd e190 0abe 7df3 163d
00000190: 00a0 1b3d e495 113d 6386 9bbd c820 fa3d
000001a0: f8a5 53bc 0a29 b7bc 5a0d 84be 9e38 e4bc
000001b0: ce53 22bd 0bf6 373e 3812 813d 89bc 38bc
000001c0: 7cdb bb3d 2ed6 21be 51ad f53a 568b 183e
000001d0: 4a16 603d fe39 063d 0ee9 67be d076 21bd
000001e0: d552 d8bd 710b 9d3e cda8 f7bd f32f 93bd
000001f0: 33ea 0cbe a798 28be 8334 c33d 559f 95be

fc2.weight f4 [64, 128]
-0.11211171 -0.066494964 0.003969617 0.16343194 -0.20892859 -0.016129304 -0.21598208 0.062667735
-0.32169133 0.2553278 -0.025135899 -0.37354776 -0.09040746 0.033008795 -0.19840144 0.2134528
-0.031539697 0.3745968 -0.25173444 0.2275234 0.18659803 -0.32699794 0.32279184 0.05598514
-0.12040457 -0.42685315 0.10060971 0.068767935 -0.049050987 -0.0007545417 -0.19825427 0.25896406
0.050431944 -0.5502641 -0.29882538 -0.21031307 0.41315728 -0.075158596 -0.0021568034 -0.16893183
-0.6338955 -0.34702855 -0.17510626 0.15389629 -0.3193831 0.057502083 -0.07971769 -0.19235627
-0.5173088 -0.23544991 -0.061925642 -0.12618192 0.12130432 -0.047266945 -0.35845715 0.021571523
-0.067364976 0.106287554 0.09666097 -0.6201742 -0.7623924 0.1478724 0.29641935 0.3897155
0.104511514 -0.26934996 -0.3802338 -0.17150155 -0.007822396 0.14472973 -0.66814005 0.23835725
-0.3715507 0.34141925 -0.49665287 -0.2342184 0.19591983 -0.15169616 -0.49505335 -0.20056836
-0.16897671 -0.3898671 0.020578478 -0.72729003 0.28005528 -0.02312979 -0.0749697 0.069378436
0.08920839 -0.33279276 -0.30147746 -0.08526753 -0.36456686 -0.14594209 0.22005564 -0.09085478
-0.28177878 0.17209426 0.23417073 -0.17895892 0.29971635 -0.3537078 0.040583592 -0.26962042
-0.14898972 -0.546734 -0.17594798 -0.10946006 0.010614318 0.19641267 -0.505866 -0.1401195
-0.25245267 -0.8416814 -0.1665472 0.034383196 -0.18633962 -0.14111352 0.081998244 -0.60587174
0.314832 -0.5835298 -0.3098667 -0.6181196 0.095636226 0.081445746 -0.18331695 -0.15548545
-0.08258103 0.0049033244 0.13691127 0.16262598 0.11198873 0.11446759 -0.026149169 0.05574908
0.26614898 -0.30947748 -0.12589847 -0.17401391 -0.110699065 -0.074256584 -0.37900817 0.35807374
-0.44178274 -0.14375277 -0.6159072 -0.27354482 -0.14113419 -0.021080391 -0.2558286 -0.21545972
-0.19097441 0.14762838 -0.056811903 0.11119606 -0.093868874 0.12749784 -0.013750373 -0.14170368
-0.1328789 -0.023816828 0.31279972 -0.080168195 -0.045960996 -0.08664449 -0.17942847 -0.4858964
-0.29965863 -0.28163424 0.01305774 -0.14207572 -0.15783517 0.006525193 -0.23901694 -0.04437441
-0.03968716 -0.065046646 -0.007139897 0.09488747 -0.19533527 -0.24971893 -0.19404364 -0.30981085
-0.53106475 -0.28133023 -0.3272055 -0.23232928 -0.4623615 -0.047792997 0.049936235 0.21749449
-0.25205195 -0.23807876 -0.091551505 -0.14229731 -0.26550794 -0.13624641 -0.05267198 0.21738403
-0.055691484 -0.016748413 0.113772236 -0.46093178 -0.2940043 0.020119105 -0.32945776 -0.14610885
-0.24372958 -0.03141773 -0.09101397 0.10087407 -0.36643523 -0.12752658 -0.01784353 -0.10113874
0.15162854 -0.1221063 0.1386465 -0.17425583 0.011806982 -0.16308706 -0.3456248 -0.3718569
-0.026472416 -0.44832012 0.07910382 -0.107188165 0.12149296 0.21711463 -0.44433057 -0.35218617
-0.26943198 0.0015228929 -0.28302568 0.23177442 0.13857475 0.024686445 0.060775258 -0.22342204
0.23419334 -0.06854884 -0.15244976 -0.082722664 -0.3131479 -0.45773572 0.06340486 0.09993082
0.1484091 -0.020885404 0.02555083 -0.12130529 -0.5217683 -0.18197715 -0.114688195 -0.12907192
00000000: d39a e5bd 832e 88bd 9013 823b b45a 273e
00000010: 60f1 55be 9a21 84bc 682a 5dbe f157 803d
00000020: bab4 a4be 53ba 823e cde9 cdbc a741 bfbe
00000030: 8c27 b9bd 3b34 073d bf29 4bbe 5f93 5a3e
00000040: c52f 01bd 27cb bf3e 56e3 80be e5fb 683e
00000050: 8e13 3f3e 466c a7be f944 a53e ad50 653d
00000060: ac96 f6bd 7f8c dabe 770c ce3d 34d6 8c3d
00000070: b0e9 48bd 70cc 45ba 2b03 4bbe f096 843e
00000080: ba91 4e3d 1cde 0cbf a4ff 98be 4f5c 57be
00000090: 5a89 d33e c0ec 99bd 2859 0dbb 77fc 2cbe
000000a0: fa46 22bf baad b1be 0e4f 33be fd96 1d3e
000000b0: 2f86 a3be 4e87 6b3d 0743 a3bd 0bf9 44be
000000c0: 596e 04bf c819 71be bea5 7dbd d535 01be
000000d0: 666e f83d fc9a 41bd b287 b7be c3b6 b03c
000000e0: a6f6 89bd 4aad d93d 30f6 c53d bdc3 1ebf
000000f0: 262c 43bf dd6b 173e 47c4 973e ca88 c73e
00000100: 220a d63d 3de8 89be 01ae c2be 1a9e 2fbe
00000110: 8229 00bc 0834 143e 3a0b 2bbf ec13 743e
00000120: e53b bebe 81ce ae3e 4949 febe f3d6 6fbe
00000130: 359f 483e 3d56 1bbe a277 fdbe cb61 4dbe
00000140: 3b08 2dbe a99c c7be 3294 a83c ae2f 3abf
00000150: 6863 8f3e af7a bdbc b789 99bd 4816 8e3d
00000160: e3b2 b63d d063 aabe 415b 9abe bea0 aebd
00000170: 82a8 babe d871 15be 4456 613e 1212 babd
00000180: 4f45 90be 7a39 303e 74ca 6f3e 0241 37be
00000190: 6c74 993e 3019 b5be fb3a 263d b00b 8abe
000001a0: c390 18be c2f6 0bbf b52b 34be 992c e0bd
000001b0: ade7 2d3c 6720 493e 6f80 01bf 7c7b 0fbe
000001c0: 7a41 81be 6f78 57bf 598b 2abe 65d5 0c3d
000001d0: d0cf 3ebe 1080 10be b2ee a73d 691a 1bbf
000001e0: a931 a13e 3562 15bf d9a6 9ebe 163d 1ebf
000001f0: eddc c33d 07cd a63d 70b7 3bbe 9437 1fbe
00000200: 3e20 a9bd 11ac a03b 7832 0c3e 6d87 263e
00000210: 595a e53d fc6d ea3d c836 d6bc 2659 643d
00000220: ae44 883e d573 9ebe 87eb 00be b430 32be
00000230: 31b6 e2bd d613 98bd 5c0d c2be 7155 b73e
00000240: 5931 e2be ed33 13be 18ac 1dbf 110e 8cbe
00000250: 7b85 10be c9b0 acbc f7fb 82be 79a1 5cbe
00000260: cc8e 43be e52b 173e 99b3 68bd c3ba e33d
00000270: 533e c0bd cb8e 023e 3f49 61bc c51a 11be
00000280: 6811 08be 821b c3bc 4927 a03e 392f a4bd
00000290: 9941 3cbd ab72 b1bd 19bc 37be 6ac7 f8be
000002a0: db6c 99be 5d32 90be 22f0 553c 4c7c 11be
000002b0: 8b9f 21be 49d1 d53b dbc0 74be f1c1 35bd
000002c0: 018f 22bd 2d37 85bd ccf5 e9bb 5d54 c23d
000002d0: f805 48be 52b6 7fbe 60b3 46be 879f 9ebe
000002e0: dcf3 07bf 840a 90be 7b87 a7be bae7 6dbe
000002f0: a6ba ecbe 97c2 43bd f089 4c3d e0b6 5e3e
00000300: f40c 81be ebca 73be 5b7f bbbd 63b6 11be
00000310: a8f0 87be 2e84 0bbe 93be 57bd eb99 5e3e
00000320: c11c 64bd f833 89bc 6b01 e93d 40ff ebbe
00000330: bb87 96be d2d0 a43c b0ae a8be 8f9d 15be
00000340: 3f94 79be e1af 00bd 8865 babd 1097 ce3d
00000350: 669d bbbe 5496 02be 982c 92bc d421 cfbd
00000360: 8344 1b3e de12 fabd 59f9 0d3e 1f70 32be
00000370: 1272 413c 4b00 27be bcf5 b0be 0764 bebe
00000380: aedc d8bc 378a e5be 2f01 a23d 7885 dbbd
00000390: 4dd1 f83d 4c53 5e3e 4c7f e3be bf51 b4be
000003a0: fdf2 89be ce9b c73a bee8 90be 4656 6d3e
000003b0: 8ae6 0d3e 3a3b ca3c 7aef 783d bfc8 64be
000003c0: 61d0 6f3e 5663 8cbd ca1b 1cbe 806a a9bd
000003d0: ec54 a0be 565c eabe 68da 813d 88a8 cc3d
000003e0: 8ef8 173e de17 abbc f94f d13c e86e f8bd
000003f0: 9b92 05bf 3858 3abe a5e1 eabd 6e2b 04be

fc2.bias f4 [64]
-0.0574506 -0.041748475 0.35681248 0.16731413 0.01597709 -0.028223634 0.28353733 0.022237096
-0.111254185 0.060419682 -0.081316225 0.13729578 -0.050609354 -0.13880171 0.061503433 -0.13989766
-0.11237118 0.113773786 0.47248113 0.024612244 -0.17711854 0.18876071 0.10655847 0.08556059
-0.11334842 -0.07382684 0.008648423 0.01351276 -0.016132269 0.25708356 -0.059739873 0.47559348
0.23567632 0.22144794 0.23268238 0.51184374 0.02579808 -0.15941913 -0.0032108375 -0.016039288
0.033320237 -0.1149785 -0.024804568 0.0011460811 0.055938028 -0.037073184 -0.015486715 0.42546242
-0.08580278 -0.05170023 0.16337712 -0.04242303 -0.045893565 0.37815508 -0.05368135 -0.0136268055
0.21844462 -0.058900256 0.028372254 -0.17393914 -0.09795387 0.07057223 -0.06529061 0.0053424113
00000000: 5251 6bbd 7300 2bbd 20b0 b63e 6554 2b3e
00000010: 63e2 823c 4035 e7bc ce2b 913e 922a b63c
00000020: 3cd9 e3bd a17a 773d 1f89 a6bd 4497 0c3e
00000030: c14b 4fbd 0922 0ebe 06eb 7b3d 5541 0fbe
00000040: dc22 e6bd 3b02 e93d 0ce9 f13e 9e9f c93c
00000050: 905e 35be 7d4a 413e 543b da3d 643a af3d
00000060: 3723 e8bd 8732 97bd 1db2 0d3c a064 5d3c
00000070: d227 84bc 75a0 833e ccb1 74bd fd80 f33e
00000080: 2255 713e 40c3 623e 4a44 6e3e 3108 033f
00000090: 7f56 d33c c53e 23be ea6c 52bb d364 83bc
000000a0: cd7a 083d d979 ebbd f332 cbbc 1a38 963a
000000b0: 461f 653d 0dda 17bd febb 7dbc 36d6 d93e
000000c0: 5eb9 afbd 9fc3 53bd 554c 273e c5c3 2dbd
000000d0: e4fa 3bbd 8b9d c13e fae0 5bbd f742 5fbc
000000e0: f2af 5f3e 6541 71bd ee6c e83c 1a1d 32be
000000f0: 0a9c c8bd 2c88 903d 15b7 85bd 650f af3b

fc3.weight f4 [4, 64]
0.10509301 0.11609434 0.10924791 0.15807107 0.19051376 0.1727087 0.085393615 0.09693966
-0.65711236 -0.16457878 -0.34137648 0.028602684 0.31525967 -0.20262365 0.39896798 -0.029315675
0.11512325 0.11920048 0.1637475 -0.093305476 -0.1349366 0.064584315 0.026747452 0.14498459
-0.27399746 -0.07188353 -0.6698526 0.09478985 0.04032764 0.13469085 -0.10864096 0.18066
0.13580051 0.18008614 0.21331213 0.23409629 0.25471783 -0.3185517 0.1452812 0.042986512
0.23676392 -0.5365984 -0.35289267 0.015937435 0.26206514 0.025298625 -0.24221861 0.1502277
-0.17273057 -0.57479686 0.17271674 -0.10868379 0.06532164 0.14839353 -0.4907006 0.38227445
0.01654444 0.06255542 0.2863709 -0.3255918 0.06747499 0.42980906 -0.15093698 -0.40331733
-0.59040457 -0.08994858 0.064287014 0.14015792 0.31168705 0.23673673 0.17147778 0.062286165
0.19639806 0.056214143 -0.40256053 0.051659327 0.5010808 -0.17868873 0.39737597 0.06962451
-0.1495202 0.14351867 0.17337844 0.047878634 -0.10876898 0.10698401 0.041031014 0.15924445
-0.27724305 0.17767498 -0.0019136479 -0.01678587 0.03977287 0.08634247 -0.0045644664 0.13127476
0.103485465 0.15086798 0.24966712 0.15201135 0.24451414 0.1838938 0.25999638 0.086576305
0.2375929 -0.13035642 0.10981719 0.17799819 0.27090424 -0.012417883 -0.10815454 0.18582083
-0.19225462 0.087179564 0.1464164 -0.16978078 -0.2703925 0.24125005 0.18913653 0.4059589
0.02886599 0.052716 0.0030448355 -0.3116676 0.0010730773 0.40518957 -0.037970666 -0.34788182
0.14147758 -0.25442964 0.15330455 -0.03884226 0.46214172 0.14503737 0.06715217 -0.15537775
0.39116922 0.40987426 0.022456927 0.088236846 0.5626779 0.07248939 0.19383039 -0.42360306
-0.33628714 0.027612733 0.20260602 -0.001965169 -0.030688968 0.16385545 0.24084212 0.13569133
-0.29884422 -0.176868 -0.054161727 0.08730762 -0.44693694 0.111338206 0.11276567 0.18874447
0.2456723 0.14784358 0.34612393 0.19386421 0.35106328 -0.09176808 -0.32326356 0.28969485
0.2347965 -0.10106188 -0.20066687 0.43525958 0.05388976 -0.0059265983 -0.089559875 0.076491006
-0.35773656 -0.106353775 0.041681204 -0.5735228 -0.32435596 0.11548741 -0.008807792 0.5899769
0.22984713 0.42944694 -0.30557704 -0.2563008 0.04219321 0.12555064 0.12167696 -0.120271236
-0.20469722 -0.5654371 0.12262988 0.1935829 0.009440766 0.42280817 0.08816691 0.29800588
0.23376505 0.111526705 -0.13012761 0.25583497 -0.066518046 -0.20549014 0.30296963 0.04779507
-0.23456162 0.18786094 0.17568137 -0.056905556 -0.38474065 -0.076421864 0.1612622 0.26219076
-0.38463935 0.36514205 -0.5415726 0.39835885 -0.58822024 0.09958576 -0.35847667 0.18435359
0.10514473 0.0021051643 0.320372 0.19492206 0.2875804 0.57105815 0.08065229 0.18312022
0.11679753 0.12931152 0.16373022 -0.21247546 0.12771368 0.0021780473 0.10086098 0.1653912
-0.34707397 -0.1379956 0.3157936 -0.15339734 -0.291138 0.08246056 0.08388475 0.26092353
0.16089156 0.05987849 -0.41460955 -0.11894499 -0.062151905 0.38894904 -0.28042403 0.34110588
00000000: 013b d73d dfc2 ed3d 5ebd df3d 62dd 213e
00000010: 0a16 433e 8dda 303e d9e2 ae3d 4d88 c63d
00000020: 8438 28bf 5787 28be e6c8 aebe 2d50 ea3c
00000030: b769 a13e 937c 4fbe 8845 cc3e 6d27 f0bc
00000040: bdc5 eb3d 621f f43d 6dad 273e f116 bfbd
00000050: d22c 0abe c844 843d 791d db3c d776 143e
00000060: 6549 8cbe ac37 93bd 767b 2bbf 2e21 c23d
00000070: 982e 253d 66ec 093e 277f debd effe 383e
00000080: 4a0f 0b3e 8068 383e 7f6e 5a3e f0b6 6f3e
00000090: 606a 823e 3519 a3be 98c4 143e a012 303d
000000a0: 3e72 723e 835e 09bf 59ae b4be 398f 823c
000000b0: 672d 863e 103f cf3c 2808 78be 4ad5 193e
000000c0: 48e0 30be e325 13bf a8dc 303e 9b95 debd
000000d0: 5ac7 853d 79f4 173e 1c3d fbbe 7ab9 c33e
000000e0: 3588 873c 0e1d 803d 359f 923e f8b3 a6be
000000f0: 5430 8a3d ef0f dc3e 398f 1abe 9c7f cebe
00000100: c124 17bf f636 b8bd e9a8 833d 8f85 0f3e
00000110: 7295 9f3e 1d6b 723e df97 2f3e c71f 7f3d
00000120: 931c 493e cd40 663d 6a1c cebe bb98 533d
00000130: d546 003f 2efa 36be dd74 cb3e 4c97 8e3d
00000140: d31b 19be 8ff6 123e 1e8a 313e 631c 443d
00000150: 45c2 debd 6f1a db3d 2310 283d fa10 233e
00000160: cdf2 8dbe 6ef0 353e 5ed3 faba 8582 89bc
00000170: e0e8 223d 52d4 b03d 8591 95bb e46c 063e
00000180: 30f0 d33d 237d 1a3e bda8 7f3e dda8 1b3e
00000190: ea61 7a3e a84e 3c3e 3f1e 853e eb4e b13d
000001a0: 8e4b 733e 277c 05be d6e7 e03d 2845 363e
000001b0: f6b3 8a3e 6074 4bbc 2180 ddbd d147 3e3e
000001c0: 65de 44be 338b b23d 2eee 153e 03db 2dbe
000001d0: e370 8abe 410a 773e 02ad 413e d8d9 cf3e
000001e0: 5e78 ec3c bbec 573d dd8b 473b e592 9fbe
000001f0: 80a6 8c3a 0275 cf3e 2187 1bbd 911d b2be
00000200: 80df 103e 9a44 82be defb 1c3e 1019 1fbd
00000210: d79d ec3e ad84 143e 1487 893d 581b 1fbe
00000220: 5547 c83e 0adb d13e 97f7 b73c 85b5 b43d
00000230: a90b 103f 5175 943d 797b 463e 80e2 d8be
00000240: d42d acbe 1934 e23c f477 4f3e 11ca 00bb
00000250: 6e67 fbbc b9c9 273e 519f 763e abf2 0a3e
00000260: 1c02 99be e31c 35be b0d8 5dbd 56ce b23d
00000270: ebd4 e4be 4905 e43d b0f1 e63d 3b46 413e
00000280: 8591 7b3e 4f64 173e 2837 b13e 5784 463e
00000290: 91be b33e e7f0 bbbd cd82 a5be e252 943e
000002a0: 7e6e 703e 88f9 cebd 9e7b 4dbe 58da de3e
000002b0: 82bb 5c3d e933 c2bb 2b6b b7bd 51a7 9c3d
000002c0: 3f29 b7be 02d0 d9bd e9b9 2a3d 64d2 12bf
000002d0: fc11 a6be aa84 ec3d 8f4e 10bc ba08 173f
000002e0: 0c5d 6b3e 78e0 db3e 9874 9cbe dc39 83be
000002f0: cad2 2c3d 5990 003e c531 f93d c450 f6bd
00000300: 269c 51be 7cc0 10bf 6025 fb3d 993a 463e
00000310: 71ad 1a3c 507a d83e da90 b43d 3a94 983e
00000320: 1b60 6f3e 1d68 e43d 2c40 05be cdfc 823e
00000330: 9d3a 88bd 026c 52be d61e 9b3e c3c4 433d
00000340: ec30 70be 9e5e 403e d1e5 333e cd15 69bd
00000350: bafc c4be 1183 9cbd eb21 253e de3d 863e
00000360: 73ef c4be e6f3 ba3e 80a4 0abf b1f5 cb3e
00000370: 9a95 16bf 9ef3 cb3d 418a b7be 30c7 3c3e
00000380: 1f56 d73d ccf6 093b cc07 a43e a699 473e
00000390: bd3d 933e de30 123f 072d a53d de83 3b3e
000003a0: 8b33 ef3d 3d6a 043e e5a8 273e 2b93 59be
000003b0: 60c7 023e 92bd 0e3b 3490 ce3d 505c 293e
000003c0: aeb3 b1be b84e 0dbe b3af a13e 3114 1dbe
000003d0: 0a10 95be 15e1 a83d c5cb ab3d c597 853e
000003e0: c2c0 243e 2643 753d b447 d4be 6e99 f3bd
000003f0: ff92 7ebd 5424 c73e bd93 8fbe 6ea5 ae3e

fc3.bias f4 [4]
0.40787295 0.2593993 0.31512916 0.2839943
00000000: b9d4 d03e fccf 843e 9c58 a13e b367 913e
